…
List of 2
 $ : num [1:35, 1:64, 1:64, 1] 0.00392 0 0 0.13725 0.28235 ...
 $ : num [1:35(1d)] 0 1 1 1 0 1 0 0 0 0 ...

> model <- keras_model_sequential() %>% layer_conv_2d(filters = 32, 
+     kernel_size = c(3, 3), activation = "relu", input_shape = c(64, 
+          .... [TRUNCATED] 

> summary(model)
Model: "sequential_2"
________________________________________________________________________________
Layer (type)                        Output Shape                    Param #     
================================================================================
conv2d_4 (Conv2D)                   (None, 62, 62, 32)              320         
________________________________________________________________________________
max_pooling2d_4 (MaxPooling2D)      (None, 31, 31, 32)              0           
________________________________________________________________________________
conv2d_5 (Conv2D)                   (None, 29, 29, 32)              9248        
________________________________________________________________________________
max_pooling2d_5 (MaxPooling2D)      (None, 14, 14, 32)              0           
________________________________________________________________________________
flatten_2 (Flatten)                 (None, 6272)                    0           
________________________________________________________________________________
dropout_2 (Dropout)                 (None, 6272)                    0           
________________________________________________________________________________
dense_6 (Dense)                     (None, 128)                     802944      
________________________________________________________________________________
dense_7 (Dense)                     (None, 32)                      4128        
________________________________________________________________________________
dense_8 (Dense)                     (None, 1)                       33          
================================================================================
Total params: 816,673
Trainable params: 816,673
Non-trainable params: 0
________________________________________________________________________________

> model %>% compile(loss = "binary_crossentropy", optimizer = optimizer_rmsprop(lr = 1e-04), 
+     metrics = c("acc"))

> history <- model %>% fit_generator(train_generator, 
…
