…
ss,metric_val_acc,flag_batch_size,samples,epochs,epochs_completed,metrics,model,loss_function,optimizer,learning_rate,script,start,end,completed,output,source_code,context,type
runs/2020-05-26T20-47-04Z,0.5201,0.7618,0.555,0.7533,50,11,13,13,runs/2020-05-26T20-47-04Z/tfruns.d/metrics.json,"Model
Model: ""sequential_3""
________________________________________________________________________________
Layer (type)                        Output Shape                    Param #     
================================================================================
conv2d_6 (Conv2D)                   (None, 62, 62, 32)              320         
________________________________________________________________________________
max_pooling2d_6 (MaxPooling2D)      (None, 31, 31, 32)              0           
________________________________________________________________________________
conv2d_7 (Conv2D)                   (None, 29, 29, 32)              9248        
________________________________________________________________________________
max_pooling2d_7 (MaxPooling2D)      (None, 14, 14, 32)              0           
________________________________________________________________________________
flatten_3 (Flatten)                 (None, 6272)                    0           
________________________________________________________________________________
dropout_3 (Dropout)                 (None, 6272)                    0           
________________________________________________________________________________
dense_9 (Dense)                     (None, 128)                     802944      
________________________________________________________________________________
dense_10 (Dense)                    (None, 32)                      4128        
________________________________________________________________________________
dense_11 (Dense)                    (None, 1)                       33          
================================================================================
Total params: 816,673
Trainable params: 816,673
Non-trainable params: 0
________________________________________________________________________________

",binary_crossentropy,<tensorflow.python.keras.optimizer_v2.rmsprop.RMSprop>,9.99999974737875e-5,cnn_flags.r,2020-05-26T20:47:04Z,2020-05-26T20:48:48Z,TRUE,"
…
