Model
Model: "sequential_2"
________________________________________________________________________________
Layer (type)                        Output Shape                    Param #     
================================================================================
conv2d_4 (Conv2D)                   (None, 62, 62, 32)              320         
________________________________________________________________________________
max_pooling2d_4 (MaxPooling2D)      (None, 31, 31, 32)              0           
________________________________________________________________________________
conv2d_5 (Conv2D)                   (None, 29, 29, 32)              9248        
________________________________________________________________________________
max_pooling2d_5 (MaxPooling2D)      (None, 14, 14, 32)              0           
________________________________________________________________________________
flatten_2 (Flatten)                 (None, 6272)                    0           
________________________________________________________________________________
dropout_2 (Dropout)                 (None, 6272)                    0           
________________________________________________________________________________
dense_6 (Dense)                     (None, 128)                     802944      
________________________________________________________________________________
dense_7 (Dense)                     (None, 32)                      4128        
________________________________________________________________________________
dense_8 (Dense)                     (None, 1)                       33          
================================================================================
Total params: 816,673
Trainable params: 816,673
Non-trainable params: 0
________________________________________________________________________________


