Model
Model: "sequential_3"
________________________________________________________________________________
Layer (type)                        Output Shape                    Param #     
================================================================================
conv2d_6 (Conv2D)                   (None, 62, 62, 32)              320         
________________________________________________________________________________
max_pooling2d_6 (MaxPooling2D)      (None, 31, 31, 32)              0           
________________________________________________________________________________
conv2d_7 (Conv2D)                   (None, 29, 29, 32)              9248        
________________________________________________________________________________
max_pooling2d_7 (MaxPooling2D)      (None, 14, 14, 32)              0           
________________________________________________________________________________
flatten_3 (Flatten)                 (None, 6272)                    0           
________________________________________________________________________________
dropout_3 (Dropout)                 (None, 6272)                    0           
________________________________________________________________________________
dense_9 (Dense)                     (None, 128)                     802944      
________________________________________________________________________________
dense_10 (Dense)                    (None, 32)                      4128        
________________________________________________________________________________
dense_11 (Dense)                    (None, 1)                       33          
================================================================================
Total params: 816,673
Trainable params: 816,673
Non-trainable params: 0
________________________________________________________________________________


